ast_model.pt (torch, 206692 bytes, 11 tensors)

embedding.weight f4 [2, 64]
0	0x00000000	0.0
1	0x00000000	0.0
2	0x00000000	0.0
3	0x00000000	0.0
4	0x00000000	0.0
5	0x00000000	0.0
6	0x00000000	0.0
7	0x00000000	0.0
8	0x00000000	0.0
9	0x00000000	0.0
10	0x00000000	0.0
11	0x00000000	0.0
12	0x00000000	0.0
13	0x00000000	0.0
14	0x00000000	0.0
15	0x00000000	0.0
16	0x00000000	0.0
17	0x00000000	0.0
18	0x00000000	0.0
19	0x00000000	0.0
20	0x00000000	0.0
21	0x00000000	0.0
22	0x00000000	0.0
23	0x00000000	0.0
24	0x00000000	0.0
25	0x00000000	0.0
26	0x00000000	0.0
27	0x00000000	0.0
28	0x00000000	0.0
29	0x00000000	0.0
30	0x00000000	0.0
31	0x00000000	0.0
32	0x00000000	0.0
33	0x00000000	0.0
34	0x00000000	0.0
35	0x00000000	0.0
36	0x00000000	0.0
37	0x00000000	0.0
38	0x00000000	0.0
39	0x00000000	0.0
40	0x00000000	0.0
41	0x00000000	0.0
42	0x00000000	0.0
43	0x00000000	0.0
44	0x00000000	0.0
45	0x00000000	0.0
46	0x00000000	0.0
47	0x00000000	0.0
48	0x00000000	0.0
49	0x00000000	0.0
50	0x00000000	0.0
51	0x00000000	0.0
52	0x00000000	0.0
53	0x00000000	0.0
54	0x00000000	0.0
55	0x00000000	0.0
56	0x00000000	0.0
57	0x00000000	0.0
58	0x00000000	0.0
59	0x00000000	0.0
60	0x00000000	0.0
61	0x00000000	0.0
62	0x00000000	0.0
63	0x00000000	0.0
64	0xbfa432cc	-1.2828002
65	0x3e034a5e	0.12821338
66	0x4018253f	2.3772733
67	0x3f21fc9d	0.6327608
68	0xbfe74230	-1.8067074
69	0x3fcd5130	1.6040401
70	0xbf38c8d1	-0.7218142
71	0x3e902ac7	0.28157637
72	0xbf517014	-0.8181164
73	0xbe09671d	-0.13418241
74	0xbf1aec6b	-0.60516995
75	0x3c2dd2d0	0.010609344
76	0x3fc92dc5	1.5717093
77	0xbfdf7a8c	-1.7459273
78	0xbefafaec	-0.49019563
79	0x3f030443	0.5117838
80	0xbf27dcb2	-0.6557113
81	0x3f8cb315	1.0992151
82	0x3fa6e8b3	1.3039764
83	0xbea1ec1e	-0.31625456
84	0xbdd0ac5f	-0.10189127
85	0xbe0a6d32	-0.13518217
86	0x3f22ef15	0.6364606
87	0x3e9f65ed	0.3113245
88	0xbee16076	-0.44018906
89	0x3eb7a2aa	0.3586629
90	0x3dcd0cb4	0.100121886
91	0xbe9bd7db	-0.30438122
92	0x3eb5b100	0.35486603
93	0xbee33535	-0.4437653
94	0x3f85f292	1.0464652
95	0x3d9c6b96	0.07637708
96	0xbff6d4d2	-1.9283698
97	0x3fe2af4e	1.7709749
98	0x3eb56ce2	0.35434633
99	0xbf3e3c1b	-0.74310464
100	0x3f96691f	1.175083
101	0x3fc3847c	1.5274806
102	0xbee2ba79	-0.44282892
103	0xbf0b4829	-0.5440698
104	0x3fa5b189	1.2944804
105	0xbf8c5eba	-1.0966408
106	0x3ffe7a2f	1.9881037
107	0x4022c77e	2.543426
108	0xbfafe357	-1.3741254
109	0xbd8871e2	-0.066623464
110	0x3fa6af92	1.302233
111	0x3f541533	0.8284485
112	0xbfae419c	-1.3613772
113	0xbf926b51	-1.1439
114	0xbfcfdbf6	-1.6239002
115	0x3ca5ab3b	0.02022325
116	0xbf7e7235	-0.99393016
117	0x3e9f9561	0.31168655
118	0xbfc2a0c6	-1.5205314
119	0x3f9a1184	1.2036595
120	0x3e321259	0.17389812
121	0x3e9b25e4	0.30302346
122	0xbe94f1fa	-0.29090863
123	0x3f87bfc0	1.0605392
124	0x3fbcac12	1.4740012
125	0xbf45a551	-0.7720538
126	0x3f6f54dc	0.9348886
127	0x400bed45	2.1863568

encoder.weight_ih_l0 f4 [192, 64]
0	0x3d318c80	0.043346882
1	0xbd51ecbc	-0.051251158
2	0x3d1d9b9c	0.03847848
3	0xbbe540e0	-0.006996259
4	0x3c32e680	0.010919213
5	0xbddcca24	-0.10780743
6	0xbcb2ce60	-0.021826923
7	0x3dd25d00	0.102716446
8	0xbd547e00	-0.051877975
9	0xbd1f02c0	-0.038820982
10	0xbdde5c08	-0.10857397
11	0xbcf204b0	-0.02954325
12	0x3d7d2a48	0.0618079
13	0x3d91ada4	0.071131974
14	0x3c6e2cf0	0.014537081
15	0xbdedeec6	-0.11617808
16	0x3d761c98	0.060085863
17	0x3d6afe68	0.057371527
18	0xbbc6ab00	-0.0060628653
19	0xbd38b9a0	-0.0450989
20	0x3d377ff8	0.044799775
21	0x3dc9c014	0.09851089
22	0x3caaf3e8	0.020868257
23	0xbd3a9d18	-0.045559973
24	0xbdb74e84	-0.089505225
25	0xbb859a20	-0.004077211
26	0x3db12396	0.086493656
27	0x3d96e63e	0.07368134
28	0x3de7401a	0.11291523
29	0xbde9d614	-0.11417785
30	0x3d6a3c80	0.057186604
31	0x3debc7cc	0.115127176
32	0x3d94d22a	0.07266648
33	0x3b10cac0	0.0022093505
34	0x3df66f8c	0.12032995
35	0xbdea84b6	-0.11451094
36	0xbd99f986	-0.07518296
37	0x3d9ce05c	0.07659981
38	0x3d3c98fc	0.046044335
39	0x3dafde78	0.085873544
40	0xbdf133f8	-0.117774904
41	0x3d9d4672	0.07679452
42	0xbdce2568	-0.100657284
43	0xbc7ff1a0	-0.015621573
44	0x3dadf0e0	0.08493209
45	0xbcc71718	-0.024303004
46	0x3d9d30c6	0.076753184
47	0xbda897f8	-0.08232111
48	0x3c9f5068	0.01944752
49	0x3d9600cc	0.07324371
50	0x3d75a96c	0.059976026
51	0x3d05e3f4	0.032688096
52	0x3d897268	0.067112744
53	0xbc90ce38	-0.017676458
54	0x3dce79b6	0.10081808
55	0x3c82ed50	0.0159823
56	0x3ded0df4	0.11574927
57	0x3ce7c3f8	0.028291687
58	0x3cfd22f8	0.030900463
59	0xbdd24c3e	-0.10268448
60	0x3de6168e	0.11234771
61	0xbbeac360	-0.007164404
62	0x3df2d320	0.11856675
63	0xbb601bc0	-0.0034196228
64	0x37e04000	2.6732683e-05
65	0xbdb3cee4	-0.08779696
66	0x3d8f9156	0.070101425
67	0x3dd20eb8	0.10256714
68	0x3d4ebff4	0.05047603
69	0xbcc7e658	-0.024401829
70	0xbdfe59a4	-0.12419441
71	0xbd76eaa4	-0.060282364
72	0x3ce20ee8	0.027594998
73	0xbc353d80	-0.011062026
74	0x3daf3c48	0.085564196
75	0x3d8c4ca2	0.06850554
76	0xbdd1169c	-0.102093905
77	0x3ddd3af4	0.1080226
78	0x3db8f73a	0.0903153
79	0x3daa26e0	0.08308196
80	0x3d56db68	0.052455336
81	0xbdc48490	-0.09595597
82	0x3dd29852	0.10282959
83	0xbcf90040	-0.030395627
84	0x3cf7fc30	0.03027162
85	0xbc0dc950	-0.008653954
86	0xbded02a0	-0.11572766
87	0x3c8e6988	0.017384306
88	0x3d883c08	0.06652075
89	0x3dbb40de	0.09143232
90	0xbd34b4e8	-0.04411784
91	0x3d507f8c	0.05090289
92	0x3dba475c	0.09095642
93	0xbd84519e	-0.0646088
94	0xbc19b0e0	-0.009380549
95	0x3dfbd23e	0.1229596
96	0x3ddb1860	0.106980085
97	0x3d69b8e4	0.05706109
98	0x3dffe8f0	0.12495601
99	0xbc302a20	-0.010752231
100	0xbc14d5d0	-0.00908418
101	0x3ce96e90	0.028495103
102	0x3d453a3c	0.04815124
103	0xbdb1929a	-0.0867054
104	0xbd9e71f0	-0.077365756
105	0x3d23f684	0.040030017
106	0xbd80a036	-0.06280558
107	0xbc17bf50	-0.009261921
108	0xba8c2680	-0.0010692626
109	0xbdf7e17c	-0.121035546
110	0x3dffedc2	0.124965206
111	0xbc2f12c0	-0.010685623
112	0xbde7604a	-0.112976626
113	0x3d94f962	0.072741285
114	0xbdfeb4ca	-0.124368265
115	0x3dfb227a	0.12262435
116	0x3b8eddc0	0.0043599308
117	0x3dc36da2	0.09542395
118	0xbda24d8c	-0.07924947
119	0xb94e4800	-0.00019672513
120	0xbc1f4f90	-0.009723559
121	0x3c93b3c8	0.018030062
122	0x3de8e3ce	0.11371575
123	0x3dae0c80	0.08498478
124	0xbdc135fe	-0.09434126
125	0x3de82816	0.11335771
126	0x3c36c110	0.011154428
127	0x3d8153c4	0.06314805
128	0xbd98e8a8	-0.07466251
129	0x3dc6eaa6	0.097127244
130	0x3df0453a	0.11731954
131	0xbde810ec	-0.113313526
132	0x3d52105c	0.051285133
133	0xbd0f15b0	-0.034932792
134	0x3d812580	0.06305981
135	0xbc5f3820	-0.013624221
136	0xbddbbac2	-0.107289806
137	0x3d8af630	0.06785238
138	0xbde5918a	-0.112094
139	0xbd85f818	-0.06541461
140	0x3dd4b660	0.10386348
141	0x3de62cae	0.11238991
142	0xbd82bf3c	-0.06384131
143	0xbd3f8df0	-0.04676622
144	0x3c21b080	0.009868741
145	0xbdf1d246	-0.118076846
146	0xbde7e252	-0.11322464
147	0xbc920f70	-0.017829627
148	0x3d7033c4	0.058643118
149	0xbdb47784	-0.08811858
150	0x3df5fad6	0.12010734
151	0xbcae11f0	-0.021248788
152	0x3d9633fa	0.073341325
153	0x3daf6ce6	0.085656926
154	0xbd37a504	-0.044835106
155	0x3db1e492	0.086861745
156	0xbd81653e	-0.063181385
157	0x3d491488	0.049091846
158	0xbdbecf6a	-0.09316905
159	0x3db51ac4	0.08842996
160	0x3dae32f2	0.08505811
161	0x3ca3b638	0.01998435
162	0xbd2979ec	-0.04137604
163	0xbc978d70	-0.01850006
164	0x3dd271be	0.10275601
165	0x3c275920	0.01021412
166	0x3dd68530	0.10474622
167	0xbdd48640	-0.10377169
168	0x3c1896e0	0.009313315
169	0xbdd87fb4	-0.105712324
170	0x3d0c2518	0.034215063
171	0x3d36bca4	0.044613495
172	0xbdd6b548	-0.104837954
173	0x3da623c8	0.081122935
174	0x3dfde0e6	0.123964116
175	0xbd82e0a0	-0.063905
176	0x3dd2be0c	0.10290155
177	0xbdacd312	-0.08438696
178	0xbdc6c2c4	-0.09705117
179	0x3dd9d734	0.1063675
180	0x3c29e1f0	0.010368809
181	0xbd169ac4	-0.03676869
182	0x3dfdb27e	0.1238756
183	0x3d16a130	0.036774814
184	0x3bd37f40	0.0064543784
185	0x3ccc3840	0.024929166
186	0xbdb17326	-0.08664541
187	0x3d688fd0	0.056777775
188	0x3d91de82	0.07122518
189	0x3de66ffa	0.112518266
190	0xbcd12cd8	-0.025534078
191	0xbdfeec7c	-0.124474496
192	0xbc52b2e0	-0.01286003
193	0x3d8a724a	0.0676008
194	0x3ddca62a	0.10773881
195	0xbd9ec716	-0.077528164
196	0x3d44ffa0	0.048095345
197	0x3d8d0ae6	0.06886844
198	0xbd56c1c0	-0.05243087
199	0x3ded9704	0.116010696
200	0x3cbe0b88	0.023198858
201	0x3de825d6	0.11335342
202	0x3b685300	0.0035449862
203	0xbcf243c0	-0.029573321
204	0xbd047a40	-0.03234315
205	0xbde6e814	-0.11274734
206	0xbdd33792	-0.103133336
207	0x3d989f6e	0.07452284
208	0x3d70d0bc	0.058792815
209	0xbd1dcd48	-0.03852585
210	0xbd7169ac	-0.058938667
211	0xbce3c500	-0.027803898
212	0xbda5b372	-0.08090867
213	0x3d0df258	0.034654945
214	0x3d78c69c	0.060736284
215	0xbcbb7970	-0.022885054
216	0xbd6c12c0	-0.05763507
217	0x3dd5aa18	0.104328334
218	0xbdce67cc	-0.100783914
219	0xbd12271c	-0.03568183
220	0x3db196f4	0.0867137
221	0x3d2a3bd4	0.041560963
222	0xbd8e77e0	-0.06956458
223	0xbd318650	-0.04334098
224	0x3bf71320	0.0075401217
225	0x3ce0fa20	0.027463019
226	0xbd77c75c	-0.06049286
227	0xbd2781f0	-0.040895402
228	0x3daa7422	0.08322932
229	0xbdd61d44	-0.10454801
230	0x3c5257f0	0.012838349
231	0x3d9bfbc0	0.07616377
232	0xbdf0bc76	-0.11754696
233	0x3cff08f8	0.031132206
234	0x3decb10a	0.11557205
235	0x3dc651b6	0.09683554
236	0xbb906780	-0.0044068694
237	0x3cb69670	0.022288531
238	0xbd799378	-0.060931653
239	0x3dbef1f0	0.0932349
240	0x3d11a434	0.035556987
241	0xbd96d544	-0.07364896
242	0xbd918468	-0.071053326
243	0x3d91c9e2	0.07118584
244	0xbd972e64	-0.07381895
245	0x3c1dcb10	0.009630933
246	0x3c638030	0.013885543
247	0x3dda4316	0.10657327
248	0x3d8993b0	0.06717622
249	0x3cd48030	0.02594003
250	0x3dded56a	0.10880549
251	0xbcfffc80	-0.031248331
252	0xbd0daf00	-0.03459072
253	0x3d9032e2	0.07040955
254	0xbd44eac4	-0.048075452
255	0xbcbae560	-0.022814453

encoder.weight_hh_l0 f4 [192, 64]
0	0xbdd1f5d1	-0.10251964
1	0x3de6fb4f	0.11278402
2	0x3da40d6d	0.08010373
3	0x3d0cfeac	0.03442256
4	0xbccee3d2	-0.025255118
5	0x3cfbf03f	0.030754207
6	0xbd620e1a	-0.05518923
7	0xbd61689c	-0.055031404
8	0x3de4891e	0.111589655
9	0x3bc80e3c	0.0061052125
10	0xbcdc511f	-0.02689415
11	0x3df74d10	0.120752454
12	0x3dbfe2f6	0.09369461
13	0xbdd2912e	-0.10281597
14	0x3d38db94	0.04513128
15	0xbd85f5b6	-0.06541006
16	0xbdc4c465	-0.09607772
17	0x3dbe3fec	0.09289536
18	0x3dd2cc83	0.10292914
19	0xbdae96c9	-0.08524854
20	0xbdbc4ca9	-0.09194309
21	0xbddb1428	-0.10697204
22	0x3dc3ff03	0.09570124
23	0x3de8a4eb	0.113595806
24	0xbdcaf8f4	-0.09910765
25	0x3d5efe31	0.054441635
26	0xbd25db40	-0.040492296
27	0x3dd332fa	0.103124574
28	0xbcc72b35	-0.024312595
29	0xbc52e516	-0.012872001
30	0x3d924451	0.071419366
31	0xbdea3b7a	-0.114371255
32	0x3d28688e	0.041115336
33	0xbd379b2a	-0.04482571
34	0x3d426d70	0.04746765
35	0xbc4c6fae	-0.012477798
36	0x3d65a2e6	0.056063555
37	0x3de689a2	0.1125672
38	0xbdb8c8a2	-0.09022643
39	0xbde9ffbf	-0.11425733
40	0x3dee3d7b	0.1163282
41	0xbd7b5eb4	-0.061369613
42	0xbdf60667	-0.1201294
43	0x3dca4a41	0.09877444
44	0x3c89923e	0.016793367
45	0x3d7fb1bf	0.06242537
46	0x3bde4e85	0.0067842626
47	0x3d45b1aa	0.048265137
48	0xbcb3a4b5	-0.021929124
49	0xbc05ca7f	-0.008165955
50	0xbc707882	-0.014677169
51	0x3d657af8	0.056025475
52	0x3ccbc5cf	0.024874596
53	0xbcd58a70	-0.026066989
54	0xbd1e22f8	-0.038607568
55	0xbcd84c19	-0.026403474
56	0xbdb1ecd4	-0.086877495
57	0xbde54b74	-0.11196032
58	0xbd8cd556	-0.06876628
59	0xbda97376	-0.082739756
60	0xbd9279e4	-0.07152155
61	0x3dfc2966	0.123125836
62	0xbdc472ba	-0.09592195
63	0x3db281e5	0.08716182
64	0x3ccbdc25	0.024885247
65	0x3d4de9e8	0.0502719
66	0x3d777640	0.060415506
67	0x3cc58d09	0.024115102
68	0xbdbb287f	-0.091385834
69	0xbdd05771	-0.10172928
70	0xbd0289fb	-0.03186987
71	0x3c838231	0.016053291
72	0xbc30861f	-0.010774164
73	0xbd1e4c16	-0.03864678
74	0x3d4216c9	0.04738501
75	0x3dbcc051	0.09216369
76	0xbd3fbc0c	-0.046810195
77	0xbc2fe821	-0.010736496
78	0x3d68ad70	0.056806028
79	0x3d69e04e	0.05709868
80	0xbdb42f9f	-0.087981455
81	0x3df77d16	0.12084405
82	0xbe108ef6	-0.14117035
83	0x3c2a06a2	0.010377558
84	0xbdca987f	-0.098923676
85	0xbb3908d7	-0.0028234029
86	0xbd5f8854	-0.054573372
87	0xbbfeed69	-0.0077797663
88	0x3c817ae3	0.015805667
89	0x3e06388c	0.13107508
90	0x3d0a117d	0.033708084
91	0xbd2e1db8	-0.04250881
92	0x3e09d3a9	0.13459648
93	0xbb4b05b1	-0.0030978734
94	0x3d123811	0.035698
95	0xbb823b0c	-0.003974324
96	0xbd888e3b	-0.06667753
97	0x3dadd86c	0.08488545
98	0xbdb74b42	-0.08949901
99	0xbdd1a259	-0.102360435
100	0x3de3dee6	0.11126499
101	0xbd08c7e2	-0.033393748
102	0xbd4a8331	-0.04944152
103	0x3dab74ab	0.08371862
104	0xbe10a7d1	-0.14126517
105	0x3c9967f4	0.018726327
106	0x3bc57c7f	0.006026804
107	0xbca87e2a	-0.020567972
108	0x3df44ccd	0.11928711
109	0xbd07d9ec	-0.03316681
110	0x3cf934ed	0.030420745
111	0x3def8297	0.1169483
112	0xbd87fc97	-0.066399746
113	0xbe0247da	-0.12722722
114	0xbd353079	-0.04423568
115	0xbc24dfc2	-0.010063114
116	0xbd679bdf	-0.056545135
117	0x3c531cec	0.0128853135
118	0x3bcca6a3	0.0062454506
119	0x3da59778	0.08085531
120	0xbd9b1028	-0.07571441
121	0xbdd5ba76	-0.10435955
122	0x3dc1093c	0.094255894
123	0xbdee368c	-0.11631498
124	0xbc082c08	-0.008311279
125	0x3cd03331	0.025415035
126	0xbdf63bbf	-0.120231144
127	0xbcb2fc2a	-0.021848757
128	0x3da19e5e	0.07891534
129	0x3dd86fde	0.10568212
130	0x3d412316	0.0471526
131	0x3c61e2f0	0.013787016
132	0xbc2f816c	-0.010712009
133	0x3dec7b67	0.11546975
134	0x3d942243	0.072330974
135	0xbd372a1b	-0.04471789
136	0x3d8734c1	0.06601859
137	0xbd730ff3	-0.059341382
138	0xbde8333d	-0.11337898
139	0xbca48b5e	-0.020085987
140	0xbd484db8	-0.048902243
141	0x3d548bbb	0.05189107
142	0x3c923f35	0.017852405
143	0x3d9b487e	0.07582186
144	0x3d9bb55b	0.0760295
145	0x3c7d0142	0.015442194
146	0xbcc7c3fd	-0.024385447
147	0x3d2c2389	0.042026076
148	0xbd65e2fd	-0.056124676
149	0xbdd86b2d	-0.10567317
150	0xbd854ca1	-0.065087564
151	0xbd9f01e8	-0.077640355
152	0x3db833b7	0.08994239
153	0x3d130c4a	0.03590039
154	0xbde30e10	-0.110866666
155	0xbd213ed4	-0.03936656
156	0xbd3a547d	-0.04549073
157	0xbd43e394	-0.047824457
158	0x3df7fc2e	0.12108646
159	0xbdda42cb	-0.10657271
160	0xbcff5a6c	-0.031171046
161	0xbdcb749e	-0.09934352
162	0xbc95bdec	-0.018279038
163	0x3d9bee7b	0.07613846
164	0x3c919f5a	0.01777618
165	0x3d948f96	0.07253949
166	0xbcce18ad	-0.02515825
167	0x3d9a4bb7	0.07533973
168	0x3d1c5d0b	0.03817467
169	0x3de2e152	0.11078133
170	0xbd3801e2	-0.04492367
171	0x3de9c4d8	0.11414498
172	0xbcfaa3a1	-0.030595602
173	0xbdf99158	-0.12185925
174	0x3d83297a	0.064043954
175	0xbda7b82f	-0.08189427
176	0x3cde40a7	0.027130438
177	0x3c837e12	0.016051326
178	0x3c71886c	0.014741998
179	0xbdaeda88	-0.08537775
180	0x3e00d571	0.12581421
181	0xbde59cad	-0.11211524
182	0x3d03a94b	0.032143872
183	0xbd4829ad	-0.04886787
184	0xbbe8a8de	-0.0071002087
185	0xbdca7680	-0.09885883
186	0x3d5e3dc2	0.054258116
187	0xbd560648	-0.052252084
188	0xbd9a4a2a	-0.07533677
189	0x3dd57162	0.10422017
190	0x3cac80e5	0.021057555
191	0x3ba9fff2	0.0051879818
192	0xbd5a6798	-0.05332145
193	0x3defb1cb	0.11703833
194	0xbd983259	-0.07431478
195	0xbb8ffde9	-0.004394282
196	0xbd7ad38e	-0.06123691
197	0xbd899fe5	-0.067199506
198	0xbd6cf38d	-0.057849456
199	0xbc393f29	-0.011306562
200	0x3baa61fe	0.00519967
201	0x3ce35b72	0.027753565
202	0xbdd0ef33	-0.10201874
203	0xbd5dcaba	-0.054148413
204	0x3dbed3af	0.09317719
205	0xbdb3e0f8	-0.08783144
206	0xbda687af	-0.08131348
207	0x3d57bd29	0.05267063
208	0xbdc1eeb4	-0.09469357
209	0xbdf1b196	-0.1180145
210	0x3d13e6df	0.036108848
211	0xbd2180ca	-0.039429463
212	0xbd094825	-0.033516068
213	0xbdf5432a	-0.11975701
214	0x3de092f3	0.10965528
215	0x3ccdb6fd	0.02511167
216	0xbd2d8502	-0.042363174
217	0x3da8bd78	0.08239263
218	0xbd2cb3a8	-0.04216352
219	0xb973d9c3	-0.00023255408
220	0xbdd44168	-0.10364038
221	0x3deaad92	0.11458887
222	0x3d556452	0.052097626
223	0x3d78bb66	0.060725592
224	0xbdd75ac2	-0.105153576
225	0x3dd29c35	0.102837004
226	0xbcff0bbe	-0.031133529
227	0xbdb6f637	-0.089336805
228	0xbdc55dd5	-0.09637038
229	0x3c48fe8d	0.012267721
230	0x3d5fe923	0.054665696
231	0x3d00cadd	0.031443466
232	0x3d794077	0.060852494
233	0x3d84eb2a	0.064901665
234	0xbd59930f	-0.05311876
235	0x3c08d641	0.008351863
236	0x3c874273	0.016511178
237	0xbc77efa6	-0.01513282
238	0xbd060c0a	-0.032726325
239	0x3d8ad844	0.06779531
240	0x3bb4254d	0.0054976107
241	0xbda1c395	-0.078986324
242	0x3d6dfc8a	0.05810217
243	0xbd9064fd	-0.07050512
244	0x3d0d8051	0.0345462
245	0x3da131dd	0.07870839
246	0xbdf2b469	-0.11850817
247	0xbd2f30ea	-0.042771257
248	0x3d7b7c4b	0.061397832
249	0xbc8e1d2e	-0.017347898
250	0xbdf935bc	-0.12168452
251	0x3b1697cd	0.0022978664
252	0xbc2e44c0	-0.010636508
253	0x3de8b1e1	0.11362053
254	0x3d241f45	0.040068883
255	0xbe01f2f0	-0.1269033

encoder.bias_ih_l0 f4 [192]
0	0x3de0872d	0.10963283
1	0xbd893cba	-0.06701036
2	0x3d65dd57	0.05611929
3	0xbcfda8c2	-0.030964259
4	0xbc8346d5	-0.016024986
5	0xbd1163f3	-0.03549571
6	0x3d895aa2	0.0670674
7	0x3e03fb18	0.12888753
8	0xbdbcade4	-0.092128545
9	0x3ddbb52e	0.10727917
10	0xbb34eb32	-0.0027606008
11	0xbd6fb1e3	-0.058519255
12	0x3d1de5fa	0.0385494
13	0xbe0ec322	-0.13941625
14	0x3de30f25	0.11086873
15	0xbd9fec79	-0.078087755
16	0x3af6826e	0.0018807182
17	0xbdfc612c	-0.123232216
18	0x3dba3ba7	0.09093409
19	0xbd0507a9	-0.03247801
20	0x3de75017	0.11294573
21	0xbde5141b	-0.111854754
22	0x3d62767f	0.055288788
23	0x3dba9033	0.09109535
24	0xbe05e09f	-0.13073967
25	0x3dbdb83b	0.09263655
26	0x3dafa4be	0.08576344
27	0x3df6cea4	0.12051132
28	0x3ba1cc87	0.0049377116
29	0x3cec171a	0.02881961
30	0x3c42efae	0.011897964
31	0x3df59c11	0.11992658
32	0xbd9eaa36	-0.07747309
33	0xbdbf1066	-0.093293
34	0x3dac723b	0.08420225
35	0x3db7a280	0.08966541
36	0xbd41ffb7	-0.04736301
37	0xbd11f206	-0.035631202
38	0x3ded47e9	0.115859814
39	0x3d5a6af8	0.05332467
40	0x3c819b9b	0.015821269
41	0xbce1f777	-0.02758382
42	0x3dbfbfcb	0.093627535
43	0xbdc38a9a	-0.095479205
44	0xbdb824b8	-0.089913785
45	0x3c940fa1	0.018073859
46	0xbcc16195	-0.023606101
47	0x3db67b1c	0.089102
48	0xbcf5103c	-0.029914968
49	0xbd8d1897	-0.06889456
50	0x3c52ae0c	0.012858879
51	0x3db23d0c	0.0870305
52	0xbd7cc967	-0.06171551
53	0x3daf93bd	0.08573101
54	0x3c95b3eb	0.018274268
55	0x3dda322c	0.10654101
56	0x3c96863b	0.018374553
57	0x3df29163	0.118441366
58	0x3cd233a8	0.025659397
59	0xbd91abf1	-0.07112873
60	0xbd83fdf3	-0.06444921
61	0xbd6eae3f	-0.058271643
62	0xbc0ad937	-0.00847464
63	0x3cd292fb	0.025704851
64	0xbcd967d7	-0.026538773
65	0xbda45a0c	-0.080249876
66	0x3cd7432c	0.026277147
67	0x3db6d371	0.08927048
68	0x3ddcb5fc	0.10776898
69	0x3d6d9209	0.058000598
70	0x3d9f584c	0.07780513
71	0xbd51eec1	-0.051253084
72	0xbdaba019	-0.083801456
73	0xbd950e5f	-0.07278132
74	0xbda30186	-0.07959275
75	0xbd5159bc	-0.051110968
76	0xbc74da4e	-0.014944626
77	0x3df6e130	0.1205467
78	0xbd91aff6	-0.0711364
79	0xbdb7ea5a	-0.08980246
80	0x3c7cd876	0.015432468
81	0xbd631454	-0.05543931
82	0x3c255ed8	0.010093413
83	0x3dc58958	0.09645337
84	0xbca94e11	-0.020667108
85	0x3d946865	0.07246474
86	0x3de1f5c0	0.11033201
87	0x3baabb63	0.0052103265
88	0xbd9c2f65	-0.07626227
89	0xbcc8d4d0	-0.02451554
90	0xbdb2ae77	-0.08724683
91	0xbd4e487e	-0.050362103
92	0x3ad18378	0.0015984615
93	0xbd475bd4	-0.04867156
94	0xbdd349dc	-0.10316822
95	0x3d1fc567	0.039006617
96	0x3dc86b16	0.0978605
97	0xbdc5221e	-0.09625648
98	0x3da30248	0.079594195
99	0xbce32827	-0.027729107
100	0xbe0163f4	-0.12635785
101	0xbcd282d7	-0.025697155
102	0xbdc31296	-0.09525029
103	0x3e0c3663	0.13692622
104	0xbc2daea0	-0.010600716
105	0xbcc0467b	-0.023471108
106	0xbdd1dc34	-0.102470785
107	0xbd0355e1	-0.032064322
108	0x3dac5a62	0.08415677
109	0x3dcef642	0.10105564
110	0x3d80ae60	0.062832594
111	0x3da201bc	0.07910487
112	0x3dfb16f4	0.12260237
113	0xbd2e4431	-0.0425455
114	0x3e01b42d	0.12666388
115	0x3c315c55	0.010825236
116	0xbced6cd9	-0.028982567
117	0x3c807bef	0.015684096
118	0xbd675c92	-0.056484766
119	0xbde027d7	-0.10945099
120	0xbd94474f	-0.072401635
121	0x3dc289cb	0.09498938
122	0xbd978a11	-0.07399381
123	0xbdc03cdf	-0.0938661
124	0x3dda61e7	0.10663205
125	0x3d4227bf	0.047401186
126	0x3de14378	0.10999197
127	0xbdd2fe5a	-0.1030242
128	0xbdbc4ced	-0.0919436
129	0x3d07e48f	0.033176955
130	0xbda76dc0	-0.0817523
131	0xbb7cf410	-0.003859762
132	0x3c41537d	0.01179969
133	0x3d224706	0.039618514
134	0xbd04dba3	-0.032436024
135	0x3c7fe545	0.015618627
136	0x3cb4f095	0.022087375
137	0x3d4ce9b7	0.050027575
138	0x3ca99977	0.02070306
139	0x3cf318c4	0.029674895
140	0x3d66c82b	0.05634324
141	0x3d373d7b	0.044736367
142	0x3d0f1d2b	0.034939926
143	0x3db10c57	0.08644932
144	0x3d414165	0.047181506
145	0xbc83801c	-0.016052298
146	0x3dfad069	0.12246782
147	0xbd20db6f	-0.03927177
148	0x3d268284	0.040651813
149	0xbd91f706	-0.07127194
150	0xbdf65b1a	-0.12029095
151	0xbcba37d4	-0.022731699
152	0x3cb2ede6	0.021841954
153	0x3c373e28	0.011184253
154	0x3d2fcfa2	0.042922623
155	0x3d7c4d19	0.061596964
156	0xbdf7372b	-0.12071069
157	0x3e038764	0.12844616
158	0x3cd3ad73	0.025839543
159	0x3d0600c9	0.032715593
160	0x3dd922a3	0.106023096
161	0xbd17e62e	-0.03708475
162	0xbbeedb04	-0.0072892923
163	0x3d23ee3d	0.040022124
164	0xbdf86070	-0.12127769
165	0xbdc243df	-0.09485602
166	0xbc91a605	-0.01777936
167	0xbc82e8ea	-0.015980203
168	0xbd1a5479	-0.037678216
169	0x3d8bca62	0.06825711
170	0x3da0b6c5	0.078473605
171	0xbd760b55	-0.0600694
172	0x3c6cfcb5	0.014464547
173	0x3de531c5	0.111911334
174	0x3dd5c5e3	0.104381345
175	0x3be9550c	0.007120734
176	0x3c92c72b	0.017917236
177	0x3dd77721	0.10520769
178	0x3db944ea	0.090463474
179	0xbc2b7c96	-0.010466715
180	0xbdae80cf	-0.08520662
181	0xbb96442b	-0.004585763
182	0x3de8fafb	0.11375996
183	0x3dba15de	0.09086202
184	0x3dc84db1	0.097804435
185	0xbc309807	-0.010778434
186	0xbdba6587	-0.09101396
187	0xbc9ecc9b	-0.019384673
188	0xbdbf9026	-0.09353666
189	0x3df9fdce	0.122066125
190	0x3c0aaa9c	0.008463528
191	0xbc15f10d	-0.009151709

encoder.bias_hh_l0 f4 [192]
0	0xbde00be4	-0.10939768
1	0xbdd7f66b	-0.105450474
2	0x3dde2777	0.10847371
3	0xbdb6a8f2	-0.089189425
4	0x3cdb9b65	0.026807496
5	0xbdda4803	-0.106582664
6	0xbdba0df5	-0.09084693
7	0xbda3724d	-0.079807855
8	0xbd6d42bc	-0.05792497
9	0x3aa24ef6	0.0012383151
10	0x3da683ce	0.081306085
11	0xbda2702c	-0.07931551
12	0x3d2e4387	0.042544868
13	0xbe007b14	-0.1254695
14	0x3c8341f7	0.016022665
15	0x3d92fafb	0.07176777
16	0xbdaadf99	-0.08343429
17	0xbcb88d78	-0.022528395
18	0x3d8d56b1	0.06901301
19	0x3c0d3c5d	0.008620349
20	0x3dd08daf	0.10183274
21	0x3d371e42	0.04470659
22	0x3dc147f7	0.09437554
23	0x3d8a7b91	0.0676185
24	0x3dd80e0c	0.10549554
25	0x3d3de200	0.04635811
26	0x3dad7d1a	0.08471127
27	0x3ddc0311	0.10742772
28	0xbd1d64be	-0.038426153
29	0xbde51153	-0.11184945
30	0xbcfac5af	-0.030611841
31	0xbd27a435	-0.040928084
32	0xbcddca35	-0.027073959
33	0xbd6ba50b	-0.057530444
34	0x3d1ddb2c	0.038539097
35	0xbd4d3a1d	-0.05010425
36	0xbd1f6086	-0.03891041
37	0x3d41bc6d	0.047298837
38	0xbd32e27d	-0.043673027
39	0x3d9515f5	0.072795786
40	0x3d856c05	0.06514744
41	0x3dab9636	0.0837826
42	0xbd3e2c97	-0.046429243
43	0x3ca70bc1	0.020391347
44	0x3c2fde8d	0.010734213
45	0x3d003693	0.031302046
46	0xbcada465	-0.021196553
47	0xbd5af48e	-0.05345588
48	0xbc3b553c	-0.011433896
49	0xbda19cf2	-0.07891263
50	0xbd57c0de	-0.052674167
51	0xbbeb031d	-0.007172002
52	0xbdc0eb3c	-0.094198674
53	0x3d1bb230	0.03801173
54	0xbd33bf53	-0.043883633
55	0xbdd6fe64	-0.1049774
56	0x3db93cd5	0.09044806
57	0x3dc6cb0b	0.09706696
58	0x3d9982fc	0.074956864
59	0xbbc9ad2c	-0.006154677
60	0xbd71056e	-0.05884307
61	0xbca458cc	-0.020061873
62	0x3d9853d9	0.07437868
63	0xbc10b1cc	-0.008831453
64	0xbe055ef6	-0.13024506
65	0x3d20fe69	0.039305124
66	0x3d9689fe	0.07350539
67	0xbd802922	-0.062578455
68	0xbdc454a5	-0.09586457
69	0xbd58f933	-0.05297203
70	0x3d1503f2	0.036380716
71	0x3d91fa86	0.07127862
72	0xbde29412	-0.110633984
73	0x3d8ca786	0.0686789
74	0x3df634a4	0.12021759
75	0x3dde35f7	0.10850137
76	0x3dcb6049	0.09930474
77	0x3d33f297	0.043932524
78	0x3dd0ae9c	0.10189554
79	0xbdb3e9d5	-0.08784834
80	0xbc520d44	-0.012820546
81	0x3d722f6c	0.059127256
82	0xba7fe57a	-0.00097616727
83	0xbdc4da31	-0.09611929
84	0x3dbc3ed4	0.09191671
85	0xbd96aee6	-0.07357578
86	0x3d4264f4	0.047459558
87	0xbc1f4e23	-0.009723219
88	0xbd7a083f	-0.06104302
89	0xbd0e1eb6	-0.034697257
90	0x3df5263b	0.119701825
91	0xbde3ada3	-0.11117103
92	0xbd834067	-0.06408768
93	0x3ded2af3	0.115804575
94	0xbde2d4ee	-0.11075769
95	0x3d0b4759	0.03400359
96	0x3d3f6d27	0.046734955
97	0x3d75a93d	0.05997585
98	0xbd5e1271	-0.054216806
99	0xbdb113d0	-0.08646357
100	0xbdeef8bf	-0.11668538
101	0xbdc919ce	-0.09819375
102	0x3dec3058	0.11532658
103	0xbd0270e1	-0.03184593
104	0x3d4313de	0.04762637
105	0x3d19d881	0.03755999
106	0xbdbe37de	-0.092879996
107	0x3c83f3dc	0.016107492
108	0xbe079bb7	-0.13242994
109	0xbd8eb074	-0.069672495
110	0xbe0b2eae	-0.13592026
111	0xbd91f4ec	-0.07126793
112	0xbcabfd77	-0.020994885
113	0x3dce6eb1	0.100797065
114	0x3e007484	0.12544447
115	0x3d94de98	0.07269019
116	0xbd5a8667	-0.053350832
117	0x3d5ef306	0.054430984
118	0xbdb2c41e	-0.08728813
119	0x3d12e236	0.035860263
120	0x3d8ac45b	0.06775733
121	0xb9ab4e17	-0.00032673843
122	0xbd9b7710	-0.07591069
123	0xbd9a3a9e	-0.075307116
124	0xbd254f64	-0.040358916
125	0xbcccbad7	-0.024991436
126	0x3d4b685e	0.04966008
127	0xbd34149f	-0.04396498
128	0xbda08240	-0.07837343
129	0x3d652fe9	0.055953894
130	0xbddc3774	-0.10752764
131	0x3e015f10	0.1263392
132	0xbc046bcd	-0.008082342
133	0xbb07b252	-0.0020705652
134	0xbd0622b5	-0.032747943
135	0x3d016683	0.031591903
136	0x3cf3a1f5	0.029740313
137	0xbdb44402	-0.08802034
138	0xbc9f7e75	-0.01946948
139	0xbd10f9f2	-0.035394616
140	0x3cde48be	0.027134296
141	0x3db18f2c	0.08669886
142	0xbd21bdbb	-0.03948758
143	0x3b2c5358	0.0026294794
144	0xbe0011c0	-0.12506771
145	0xbca30f05	-0.019904623
146	0x3dde17be	0.10844372
147	0xbd2512e0	-0.040301204
148	0x3de6396a	0.112414196
149	0x3dfdb4b6	0.123879835
150	0x3dc77f71	0.097411044
151	0xbd99f7df	-0.07517981
152	0xbdc3529d	-0.095372416
153	0xbddca00d	-0.10772715
154	0xbd40c454	-0.047062233
155	0x3de571bb	0.11203333
156	0xbdf5e2c7	-0.12006145
157	0x3867a674	5.5229713e-05
158	0x3d1259fb	0.035730343
159	0x3dccee92	0.10006441
160	0xbdcff50d	-0.101541616
161	0x3c85e047	0.016342295
162	0xbdab93d5	-0.08377806
163	0x3dc6f652	0.097149506
164	0xbd141da1	-0.03616107
165	0x3ca7f6dd	0.020503456
166	0x3b9b3a7c	0.0047371965
167	0xbdbdcbc2	-0.09267379
168	0x3d9e52ce	0.077306375
169	0x3dfcc4b3	0.12342205
170	0x3d21672b	0.03940503
171	0xbcc0c1fb	-0.023529997
172	0xbc174f28	-0.009235181
173	0x3de76e58	0.11300343
174	0x3dce94a9	0.100869484
175	0xbdb77ca7	-0.089593224
176	0xbdef619a	-0.11688538
177	0x3dc6d24d	0.097080804
178	0x3dc55647	0.09635597
179	0x3d5f5246	0.05452182
180	0xbd2548e8	-0.040352732
181	0x3d0ee7eb	0.034889143
182	0x3dd80bab	0.105491005
183	0x3dd3bcdb	0.10338756
184	0x3d9af51d	0.07566283
185	0x3dcc7848	0.09983879
186	0xbd28b4ab	-0.041187923
187	0x3c27cef1	0.01024221
188	0x3ddb7c76	0.107170984
189	0x3db92a6b	0.09041294
190	0x3dcb78c7	0.09935146
191	0xbcc909c2	-0.024540786

encoder.weight_ih_l0_reverse f4 [192, 64]
0	0xbdb86094	-0.09002796
1	0x3de9a080	0.11407566
2	0x3df4e60c	0.119579405
3	0xbdbeb5c2	-0.09312011
4	0x3d410d8c	0.04713206
5	0xbd770de8	-0.060315996
6	0xbdc2abb8	-0.09505409
7	0xbd6f8fb4	-0.058486655
8	0x3de0a26c	0.109684795
9	0xbca8f3e0	-0.020624101
10	0xbce4e0c0	-0.0279392
11	0x3bdaae00	0.0066735744
12	0x3d9da1c4	0.0769687
13	0xbdab6096	-0.08368032
14	0x3c3fae90	0.011699334
15	0xbbcc9420	-0.006243244
16	0x3cc6e3a0	0.024278462
17	0xbdb195cc	-0.086711496
18	0xbcb8b3f0	-0.022546738
19	0x3dbd1bd8	0.092338264
20	0x3d9196d8	0.07108849
21	0x3d4265b8	0.047460288
22	0x3d24cdec	0.040235445
23	0xbc5b29a0	-0.013376623
24	0x3bdf1380	0.0068077445
25	0xbdae07be	-0.084975705
26	0x3d4fbfdc	0.05072008
27	0xbdcb5d2e	-0.09929882
28	0xbd2e81ac	-0.042604133
29	0xbd7e049c	-0.062016115
30	0xbcdbfe30	-0.026854604
31	0x3b69cf40	0.003567651
32	0x3c982158	0.018570587
33	0xbdf6ab5c	-0.12044403
34	0xbde124de	-0.1099336
35	0xbda47210	-0.08029568
36	0x3daaf21a	0.083469585
37	0xbdd7ce26	-0.105373666
38	0xbdcf17c4	-0.10111955
39	0xbdacfa36	-0.084461614
40	0xbd746400	-0.05966568
41	0x3dfc0606	0.123058364
42	0xbdd62640	-0.10456514
43	0x3daeb7d0	0.08531153
44	0x3d77b488	0.060474902
45	0xbd9647f6	-0.07337944
46	0x38696000	5.5640936e-05
47	0x3dbe427c	0.09290025
48	0xbdaa4794	-0.08314434
49	0x3d9c8240	0.07642031
50	0x3c9078b0	0.017635673
51	0xbdf0f612	-0.11765684
52	0xbdbc5ade	-0.09197019
53	0x3d22b89c	0.03972684
54	0xbd332414	-0.04373558
55	0x3d0796dc	0.033102855
56	0x3c18c950	0.00932534
57	0x3845a000	4.711747e-05
58	0x3db395d2	0.0876881
59	0xbd68dbec	-0.05685036
60	0x3d10a3f4	0.035312608
61	0x3da545f6	0.080699846
62	0xbca2e778	-0.019885764
63	0x3d91b46e	0.07114492
64	0xbd995452	-0.07486786
65	0xbc918e10	-0.017767936
66	0x3d999e14	0.07500854
67	0x3def20b0	0.116761565
68	0xbd1d8a18	-0.038461775
69	0xbb805fe0	-0.003917679
70	0x3d969744	0.073530704
71	0x3dfd8e92	0.12380709
72	0x3ca6f3e8	0.020379975
73	0x3d36a6cc	0.044592664
74	0xbd0ce790	-0.034400523
75	0xbd913c5a	-0.07091589
76	0xbde6f894	-0.11277881
77	0x3d7a50f4	0.06111236
78	0x3dd97e2e	0.1061977
79	0xbb7180c0	-0.0036850423
80	0xbdc4ae82	-0.09603597
81	0x3ce3f9c8	0.027829066
82	0x3ccd2a50	0.02504459
83	0x3dcaa8b8	0.09895462
84	0xbddc56b6	-0.10758726
85	0x3ddb3428	0.107033074
86	0xbd87844c	-0.066170305
87	0x3d0885c4	0.033330694
88	0xbc54a980	-0.012979865
89	0x3d9e2f90	0.077239156
90	0x3dca928c	0.09891233
91	0xbc459220	-0.012058765
92	0xbb2a97c0	-0.0026030391
93	0x3d058a5c	0.032602653
94	0x3d3ec794	0.04657705
95	0xbddb0f6c	-0.10696301
96	0x3db7547a	0.089516595
97	0xbd0a51d0	-0.03376943
98	0x3cd4cbc0	0.025976062
99	0xbd551bf0	-0.052028596
100	0xbdd149ec	-0.102191776
101	0x3def7936	0.11693041
102	0x3ca54f60	0.02017945
103	0xbdb0702c	-0.08615145
104	0xbd8b084e	-0.06788693
105	0x3d7a7038	0.061142176
106	0xbc7deb30	-0.015497968
107	0xbdd01b30	-0.101614356
108	0x3d5c0b4c	0.05372171
109	0x3d873416	0.066017315
110	0xbdedf242	-0.11618473
111	0xbc68c390	-0.014206782
112	0xbd836a9c	-0.064168185
113	0x3d9863f4	0.074409395
114	0x3db6ca0e	0.089252576
115	0xbd519590	-0.051168025
116	0xbd864f56	-0.06558101
117	0x3d9b1af4	0.075735
118	0x3c47e500	0.012200594
119	0x3ce58830	0.02801904
120	0x3cb221a8	0.021744564
121	0x3dbc3304	0.09189418
122	0x3dbffa6e	0.093739375
123	0xbd94a534	-0.072580725
124	0x3dee682e	0.116409644
125	0xbd2a1f5c	-0.041533813
126	0xbd06caf4	-0.032908395
127	0xbd6c2408	-0.05765155
128	0xbde3c222	-0.11121012
129	0xbd72a610	-0.0592404
130	0x3de22058	0.11041325
131	0x3dea75aa	0.11448224
132	0xbc14bc60	-0.009078115
133	0x3af57e00	0.0018729568
134	0x3da3dc7a	0.08001037
135	0xbdecf100	-0.115694046
136	0xbda5324e	-0.080662355
137	0xbd2e7b7c	-0.042598233
138	0xbdc2239a	-0.09479447
139	0x3cbe2fa0	0.023216069
140	0x3d0adb58	0.03390059
141	0x3d9c18c0	0.07621908
142	0xbdf89b10	-0.12138951
143	0x3dacc56a	0.08436091
144	0x3dfc9b38	0.12334293
145	0x3d9ef50a	0.07761581
146	0x3db06e4a	0.08614786
147	0xbdd88c38	-0.105736196
148	0xbdb06a58	-0.086140335
149	0x3d5b06d8	0.053473324
150	0xbd347520	-0.04405701
151	0x3d59758c	0.053090617
152	0xbc398030	-0.011322066
153	0x3d8ddfde	0.06927465
154	0x3cd73008	0.02626802
155	0xbbbdd7c0	-0.0057935417
156	0xbdfa06b2	-0.12208308
157	0xbd562eb4	-0.052290633
158	0xbd123ec8	-0.035704404
159	0xbcc83118	-0.024437472
160	0xbddcb0fe	-0.10775946
161	0xbd8e3668	-0.06943971
162	0xbcabf4e8	-0.020990804
163	0x3debcb46	0.11513381
164	0x3daa94e8	0.08329183
165	0x3d38c5cc	0.04511051
166	0x3df3b436	0.11899607
167	0xbd9e68e6	-0.077348515
168	0xbd8fdf8e	-0.070250615
169	0xbd44209c	-0.04788266
170	0x3dcb5374	0.09928027
171	0x3ca25e30	0.019820303
172	0x3d101d2c	0.03518407
173	0xbdb210ba	-0.086945966
174	0x3db37788	0.08763033
175	0xbdff8fb8	-0.12478584
176	0x3d77f980	0.060540676
177	0xbd72eee8	-0.05930987
178	0xbd43bd08	-0.047787696
179	0x3d73f5b0	0.059560478
180	0xbcb67e10	-0.022276908
181	0xbd793968	-0.060845762
182	0xbcc8ead8	-0.024526045
183	0x3de0400c	0.10949716
184	0x3cae31d0	0.021263987
185	0x3de558f0	0.11198604
186	0xbc9ff528	-0.01952608
187	0x3dd9ef42	0.10641338
188	0x3da86fa4	0.08224419
189	0x3d931bf4	0.07183066
190	0x3c98f8c8	0.018673316
191	0x3dbeb1d8	0.09311265
192	0xbcb36650	-0.021899372
193	0xbdbd8f1a	-0.0925581
194	0xbdd7d1c6	-0.10538058
195	0xbdc9e4c0	-0.09858084
196	0xbd72fc50	-0.059322655
197	0xbda20baa	-0.07912381
198	0x3cacfe40	0.02111733
199	0x3b289640	0.0025724322
200	0xbda09c7a	-0.078423455
201	0x3d3b7b40	0.045771837
202	0x3da2face	0.079579934
203	0x3c050820	0.008119613
204	0x3cb8a360	0.02253884
205	0xbd029f30	-0.031890094
206	0xbd19a0fc	-0.037507042
207	0x3cf26970	0.029591292
208	0x3d8552c0	0.06509924
209	0xbd3736fc	-0.04473017
210	0x3d803ffe	0.062622055
211	0xbda9ba8e	-0.082875356
212	0xbdb74d2e	-0.08950268
213	0x3dff6bc0	0.124717236
214	0x3d890630	0.06690633
215	0xbdbb5f88	-0.091490805
216	0xbc584940	-0.013201058
217	0x3d4e5a4c	0.050379083
218	0xbdd6b144	-0.104830295
219	0x3ddf1a20	0.10893655
220	0x3d396ce4	0.04526986
221	0x3c93bc18	0.018034026
222	0xbcb10fb8	-0.02161394
223	0xbd50ed8c	-0.051007792
224	0x3dad76f8	0.08469957
225	0xbd61a630	-0.05509013
226	0x3dbeff1c	0.09326002
227	0x3dcef100	0.10104561
228	0x3cb0bee8	0.021575406
229	0x3df76686	0.12080102
230	0xbdd17cf4	-0.10228911
231	0xbdd215c4	-0.10258058
232	0x3dbb7438	0.09153026
233	0xbdf921c0	-0.121646404
234	0xbdb6e1aa	-0.08929761
235	0xbd46bf18	-0.048522085
236	0xbd10f7a4	-0.03539242
237	0x3df961f6	0.12176888
238	0xbd4fa60c	-0.050695464
239	0x3dad689a	0.08467217
240	0xbda3815a	-0.07983656
241	0xbda92b8c	-0.08260259
242	0xbdc3a960	-0.0955379
243	0x3dca4efa	0.09878345
244	0x3d4f86d4	0.05066569
245	0x3da11dbe	0.07867001
246	0x3dae5410	0.085121274
247	0x3d8632bc	0.065526456
248	0x3d1d9918	0.03847608
249	0x3dc8d24c	0.09805736
250	0xbb6fa6c0	-0.0036567897
251	0x3d600194	0.054689005
252	0x3de1fec0	0.11034918
253	0x3d80de84	0.062924415
254	0xbd4822dc	-0.04886137
255	0xbdd32c4e	-0.10311185

encoder.weight_hh_l0_reverse f4 [192, 64]
0	0x3d316b3b	0.043315154
1	0xbd9aa4a7	-0.07550936
2	0x3d783ffe	0.060607903
3	0xbdb537ac	-0.08848509
4	0x3dc7433e	0.09729622
5	0xbd1e75b3	-0.038686465
6	0x3cd8fb70	0.026487082
7	0x3da03f3c	0.07824561
8	0xbcd077bf	-0.025447724
9	0xbcf35473	-0.029703354
10	0xbdf15b68	-0.117850125
11	0x3dafdf39	0.08587498
12	0x3d2b1881	0.041771416
13	0xbdcd5320	-0.100256205
14	0x3da2742e	0.07932316
15	0xbd9eb111	-0.077486165
16	0x3d8de4ce	0.06928407
17	0x3da4442c	0.08020815
18	0xbdd2e442	-0.10297443
19	0x3da065e9	0.07831938
20	0x3db3e003	0.08782961
21	0x3dc785e0	0.097423315
22	0x3d977623	0.0739558
23	0xbb5fa1e9	-0.0034123606
24	0x3cee6f75	0.029105881
25	0x3d177b6f	0.03698295
26	0x3dced434	0.10099068
27	0x3b4cfacf	0.0031277423
28	0x3d39a0b1	0.045319263
29	0x3d5350e5	0.05159082
30	0xbdeadb7c	-0.114676446
31	0x3dbdc46b	0.092659794
32	0xbd9c65d9	-0.076366134
33	0x3d6a5e8f	0.057219084
34	0xbd365738	-0.044516772
35	0xbd7b336f	-0.061328348
36	0xbc619230	-0.013767764
37	0xbdabb09f	-0.08383297
38	0xbd67bed0	-0.056578457
39	0xbddf8a8b	-0.10915097
40	0xbc97baf9	-0.018521773
41	0xbd24b784	-0.040214077
42	0xbd5bf472	-0.053699918
43	0x3d1c3c06	0.03814318
44	0x3df8d883	0.12150671
45	0xbd84ded7	-0.06487816
46	0xbd8bb2b0	-0.06821191
47	0xbdd52880	-0.104081154
48	0x3d974c0e	0.07387553
49	0x3dadb6b9	0.08482117
50	0x3d0a4420	0.033756375
51	0x3df47bd7	0.11937683
52	0x3b5c3c95	0.0033605446
53	0x3bd348c1	0.006447882
54	0x3d630f9b	0.055434804
55	0x3bd8e52d	0.0066191168
56	0xbd1d6c7f	-0.038433548
57	0x3d38b9a2	0.04509891
58	0x3ddad4c4	0.10685113
59	0xbd932e0f	-0.07186519
60	0xbd1ec771	-0.03876442
61	0x3d7a0558	0.061040252
62	0xbd9a7fe2	-0.07543923
63	0x3c6573c3	0.0140046505
64	0x3d0944da	0.033512928
65	0x3dca508b	0.098786436
66	0x3d8c5292	0.068516865
67	0x3b826940	0.003979832
68	0xbcccd89f	-0.025005637
69	0xbb9dec28	-0.004819412
70	0xbdb9c476	-0.09070675
71	0xbd3a24fa	-0.04544542
72	0x3a8d7f99	0.0010795473
73	0xbdef07aa	-0.11671384
74	0xbddca1f3	-0.10773077
75	0x3cd260c2	0.025680903
76	0x3d844a63	0.06459501
77	0x3d48da3d	0.049036253
78	0xbcc0f552	-0.023554478
79	0xbdeb377d	-0.11485193
80	0xbd0f4f85	-0.034987945
81	0xbd2e6186	-0.042573474
82	0x3d34a86f	0.044105943
83	0xbbd8ca6b	-0.006615927
84	0x3dcb163a	0.09916349
85	0x3d81be06	0.06335072
86	0xbd9ec248	-0.077519
87	0xbda825af	-0.082103126
88	0x3dabdf6f	0.08392226
89	0x3d2523e0	0.040317416
90	0x3d4bcb2c	0.049754307
91	0xbd8e9ffc	-0.06964108
92	0x3cb4a9ff	0.022053717
93	0xbda46e58	-0.08028859
94	0xbc4c3c03	-0.01246548
95	0x3d32e5b9	0.04367611
96	0x3e01b791	0.12667681
97	0x3d213afd	0.039362896
98	0x3dc8cf83	0.09805205
99	0x3da8cccc	0.08242187
100	0xbd9b41b4	-0.07580891
101	0x3afb43f8	0.0019170037
102	0x3ded6493	0.11591449
103	0xbdc285c3	-0.09498169
104	0xbd842369	-0.064520665
105	0xbcd55494	-0.026041307
106	0xbd29f8e0	-0.04149711
107	0xbdb7ce8a	-0.08974941
108	0x3cf0a1e0	0.029374063
109	0xbd9dae0a	-0.07699211
110	0xbd42565f	-0.04744565
111	0xbd98ebb7	-0.07466834
112	0xbdb8fb90	-0.09032357
113	0xbcaebae3	-0.021329349
114	0x3d6a5ddb	0.057218414
115	0xbda2fbd9	-0.079581924
116	0x3d2875bd	0.04112791
117	0xbdb7e9f4	-0.0898017
118	0xbd139908	-0.036034614
119	0xbe00871d	-0.12551542
120	0xbda6da4a	-0.08147104
121	0xbdca0df3	-0.09865942
122	0xbd7381f1	-0.059450094
123	0x3d380e71	0.044935647
124	0x3d68bf72	0.0568232
125	0xbd9ca1ae	-0.076480255
126	0xbdd8072d	-0.10548244
127	0xbd9c3b2a	-0.07628472
128	0x3de78fcd	0.11306725
129	0xbd0fc96a	-0.035104193
130	0x3d5ae606	0.053442024
131	0xbdaba690	-0.08381379
132	0x3dab3ba2	0.083609834
133	0x3dd09e3f	0.10186433
134	0xbdc117e1	-0.09428383
135	0xbc4a054f	-0.012330367
136	0xbd38f31f	-0.045153733
137	0xbcdf010e	-0.027222183
138	0xbd68059e	-0.056645982
139	0xbdd226c9	-0.10261304
140	0x3dfb4325	0.12268666
141	0xbd847992	-0.064685
142	0xbdd0d822	-0.10197474
143	0x3c6de718	0.014520429
144	0x3c9d95a9	0.019236403
145	0x3d5b98ee	0.053612642
146	0xbb232fc1	-0.002490029
147	0xbd60d38c	-0.054889247
148	0xbd3d6891	-0.0462423
149	0xbc37afcc	-0.011211347
150	0xbd2be4f9	-0.041966412
151	0xbd52f009	-0.051498447
152	0x3df5faf3	0.120107554
153	0xbdc4ba35	-0.09605829
154	0xbcf26047	-0.029586924
155	0xbdb5505d	-0.08853219
156	0xbc1232fc	-0.008923288
157	0xbe09fae6	-0.13474616
158	0xbd0e1a0a	-0.0346928
159	0x3dae7d0f	0.08519947
160	0xbd477d3e	-0.048703425
161	0x3d99e846	0.07515006
162	0xbdb7793a	-0.08958669
163	0x3d6dd843	0.05806757
164	0x3d246d37	0.040143218
165	0x3da285c6	0.079356715
166	0x3b9cf4dc	0.0047899317
167	0x3d4844ba	0.048893668
168	0xbd1e7f3e	-0.038695566
169	0xbd0c5cc5	-0.03426816
170	0x3d0e322d	0.03471582
171	0xbddfe0f7	-0.109315805
172	0xbdc6ab49	-0.09700639
173	0x3d9b0fa9	0.07571346
174	0x3e055224	0.13019615
175	0x3d9ed9d0	0.07756388
176	0xbe048258	-0.12940347
177	0xbd8e404b	-0.06945857
178	0x3d216620	0.039404035
179	0xbdacf33e	-0.08444832
180	0xbded64a8	-0.11591464
181	0x3d274f9c	0.040847406
182	0x3d20e5e3	0.039281737
183	0x3c5ee59b	0.013604547
184	0x3cfddb6a	0.030988414
185	0x3cac3407	0.021020902
186	0x3dd4903a	0.103790715
187	0xbdfdd57e	-0.12394236
188	0x3c6ae5b4	0.014336992
189	0x3df20ddc	0.1181905
190	0x3e03a2cb	0.1285507
191	0xbce64c29	-0.028112488
192	0x3d7feea9	0.062483463
193	0xbb2f6d77	-0.0026768127
194	0x3cb26abc	0.02177941
195	0x3b104ac1	0.0022017213
196	0xbd8e666d	-0.0695313
197	0x3d92f557	0.07175701
198	0x3deac424	0.11463192
199	0x3cfecb49	0.031102793
200	0x3cb9622a	0.022629816
201	0xbbbf09f9	-0.0058300463
202	0x3d55f9d3	0.052240204
203	0xbe050b00	-0.12992477
204	0xbc3c66d4	-0.0114991255
205	0xbd25fa20	-0.04052174
206	0xbd823a78	-0.06358808
207	0x3d08ea6c	0.033426687
208	0xbd3c269a	-0.04593525
209	0xbdd67230	-0.10470998
210	0x3db3a803	0.0877228
211	0xbd9d0642	-0.07667209
212	0x3df350ff	0.11880683
213	0x3c5e861c	0.013581779
214	0x3cda1a52	0.026623879
215	0xbe01d589	-0.12679113
216	0xbde74df3	-0.112941645
217	0xbd875bf0	-0.066093326
218	0x3d9a1832	0.07524146
219	0x3dce2041	0.10064746
220	0x3cc7cbd9	0.024389194
221	0x3dc687da	0.096938804
222	0xbd0f89a9	-0.035043392
223	0xbd438396	-0.047732912
224	0x3dfcf0a7	0.12350588
225	0xb9feb180	-0.00048578903
226	0x3d9f4540	0.0777688
227	0xbd86c3ef	-0.0658034
228	0xbd2c9502	-0.042134292
229	0x3dada4ab	0.084786735
230	0xbd98ad8d	-0.07454977
231	0x3a43a6ef	0.0007463535
232	0x3de74b83	0.112936996
233	0xbc8b3a4c	-0.016995572
234	0x3d763e63	0.06011809
235	0x3d3ab764	0.04558505
236	0xbd1fa0db	-0.038971763
237	0xbd94f38d	-0.07273016
238	0xbdbd7eae	-0.09252678
239	0x3d78d56c	0.06075041
240	0x3e00f17c	0.12592119
241	0x3bf79ca6	0.0075565157
242	0xbc774d6e	-0.015094144
243	0x3d803344	0.06259778
244	0xbd4809b7	-0.04883739
245	0xbdce26a8	-0.10065967
246	0x3d83f6f4	0.06443587
247	0x3cf8ed31	0.03038654
248	0xbd4d59a3	-0.050134312
249	0xbdecb7c5	-0.11558489
250	0x3d99db5e	0.07512544
251	0x3ce952dc	0.028481893
252	0xbd0ce1ac	-0.034394905
253	0xbdbd1882	-0.0923319
254	0xbdc03566	-0.09385185
255	0xbd615252	-0.055010147

encoder.bias_ih_l0_reverse f4 [192]
0	0xbddfe80c	-0.10932931
1	0xbc218a5f	-0.00985965
2	0x3de2f128	0.11081153
3	0xbdbf9fa6	-0.093566224
4	0xbdbc43c5	-0.091926135
5	0xbe02c661	-0.12770988
6	0xbc1352a9	-0.008991876
7	0xbc8de664	-0.017321773
8	0x3ae1420f	0.0017185825
9	0xbc9158e0	-0.017742574
10	0x3df0349c	0.117287844
11	0x3dc7bb22	0.097524896
12	0x3da9b3d6	0.08286254
13	0x3d4c817b	0.04992817
14	0x3d870e2d	0.06594501
15	0x3de2327b	0.11044785
16	0x3d01fe44	0.031736627
17	0x3e0a18a8	0.13485968
18	0xbd9930db	-0.074800216
19	0x3d8041c9	0.062625475
20	0xbd88c500	-0.066782
21	0xbcd24748	-0.025668755
22	0xbd87bb5c	-0.06627533
23	0xbd72e905	-0.059304256
24	0x3dc8795c	0.097887725
25	0xbdfbf452	-0.1230246
26	0x3dbd2db0	0.0923723
27	0xbde426ac	-0.111401886
28	0xbda8a325	-0.08234242
29	0xbd9112c6	-0.07083659
30	0x3dde4374	0.108527094
31	0x3defee63	0.117153905
32	0x3da61e69	0.08111269
33	0x3d725d75	0.05917116
34	0x3de2bfb5	0.110717215
35	0xbdb34d69	-0.08754999
36	0x3d9fb4d6	0.077981636
37	0x3d79fcfe	0.061032288
38	0xbd6c5f67	-0.05770817
39	0x3d80bf0a	0.06286438
40	0xbdbb22ee	-0.09137522
41	0xbe03beb4	-0.12865716
42	0x3c85b96e	0.016323771
43	0x3dc576a3	0.09641769
44	0xbddd58f9	-0.10807986
45	0x3d800b26	0.062521264
46	0xbdaf5ab9	-0.08562226
47	0x3d3cbb7d	0.04607724
48	0x3ce32d53	0.027731573
49	0x3dcc154d	0.09965
50	0x3c525bec	0.012839299
51	0x3d2dd47a	0.04243896
52	0x3dbed444	0.0931783
53	0xbdd5fce1	-0.104486234
54	0x3c7f286f	0.015573605
55	0xbd0260ba	-0.031830527
56	0x3dcafa1e	0.09910987
57	0x3d1a465d	0.03766476
58	0x3de676eb	0.112531506
59	0xbd00c5c4	-0.031438604
60	0xbd23a40f	-0.03995138
61	0xbdc62426	-0.096748635
62	0xbced0738	-0.028934106
63	0xbde8c908	-0.11366469
64	0x3d39bdba	0.045346953
65	0xbd2fae17	-0.042890634
66	0x3d41aef1	0.047285978
67	0xbc7c93b1	-0.015416072
68	0x3d79bb0e	0.060969405
69	0x3dcb9e2a	0.09942277
70	0x3d9516fb	0.07279774
71	0xbd354e94	-0.04426439
72	0xbd6f0f30	-0.058364093
73	0xbd753bf9	-0.059871648
74	0x3d3828da	0.044960834
75	0x3de40931	0.111345656
76	0x3d6c4aa1	0.05768836
77	0x3dbdd09e	0.09268306
78	0x3d1decce	0.038555913
79	0xbd6699db	-0.05629907
80	0xbd7d3f02	-0.061827667
81	0xbc8b48ea	-0.017002542
82	0x3d097468	0.03355828
83	0xbda264d1	-0.079293855
84	0xbd0ca480	-0.034336567
85	0x3d556dce	0.05210667
86	0xbd64c941	-0.055855993
87	0x3da5613f	0.08075189
88	0x3da71881	0.081589706
89	0x3c6ccba0	0.014452845
90	0x3da12bf4	0.078697115
91	0x3cc7f13a	0.024407018
92	0x3db04830	0.08607519
93	0x3dd6834b	0.10474261
94	0xbdc99a94	-0.098439366
95	0xbc402126	-0.011726653
96	0xbde1ab54	-0.11019006
97	0xbda55c3e	-0.080742344
98	0x3d4d521b	0.05012713
99	0x3db8c1d0	0.09021342
100	0x3d84350b	0.0645543
101	0x3d5a109e	0.053238504
102	0x3df6523a	0.12027402
103	0x3c046b16	0.008082172
104	0x3dfa1de5	0.12212733
105	0x3dbf1ed0	0.09332049
106	0x3d472f0d	0.048628855
107	0x3dd14c56	0.10219638
108	0xbd88ac8c	-0.06673536
109	0x3d870f26	0.06594686
110	0x3d913007	0.070892386
111	0xbdba3a36	-0.09093134
112	0xbdce08b5	-0.100602545
113	0x3cf00062	0.029297058
114	0xbda76f36	-0.08175509
115	0xbd2bd14e	-0.041947655
116	0xbc9e79ab	-0.019345125
117	0xbde8e672	-0.11372079
118	0xbc2cd918	-0.010549806
119	0x3e037585	0.12837799
120	0x3cdd7f95	0.027038375
121	0xbdef294a	-0.11677797
122	0xbdfb7c7c	-0.12279603
123	0xbdd9cc75	-0.106347
124	0xbd26ac48	-0.040691644
125	0xbd44767d	-0.04796456
126	0xbba529f0	-0.0050403997
127	0x3df41a93	0.11919131
128	0x3c29ed70	0.010371551
129	0xbd1f8f37	-0.03895494
130	0xbdac686c	-0.084183544
131	0x3d0e7858	0.034782737
132	0xbde1b754	-0.11021295
133	0x3dd9679e	0.106154665
134	0x3ddf6eb8	0.1090979
135	0xb9a7853f	-0.00031951998
136	0x3d135182	0.035966404
137	0xbd952c93	-0.072838925
138	0x3d2d3bf1	0.042293493
139	0xbbd252d3	-0.006418565
140	0xbd4a89b6	-0.049447738
141	0xbded63b4	-0.115912825
142	0x3de682f2	0.112554446
143	0xbd4f5042	-0.05061365
144	0x3d811579	0.06302924
145	0xbb7c00b6	-0.0038452572
146	0xbd9f945d	-0.0779197
147	0x3d44eac1	0.04807544
148	0x3d990f8f	0.07473671
149	0x3de66ca6	0.11251192
150	0xbc6abef8	-0.014327757
151	0xbcc8fa3f	-0.02453339
152	0xbdcfc6b2	-0.1014532
153	0x3d9ccc7a	0.07656188
154	0xbd4585ca	-0.048223294
155	0xbde81173	-0.11331453
156	0x3df1dbe7	0.11809521
157	0xbd127308	-0.035754234
158	0x3ddd6705	0.10810665
159	0xbdca6239	-0.09882016
160	0x3e038630	0.12844157
161	0xbdfe4ff0	-0.124175906
162	0xbd4d29ec	-0.050088808
163	0x3d03c141	0.032166723
164	0x3cefc691	0.029269489
165	0x3ccf2e80	0.025290728
166	0x3dbb7ecf	0.09155046
167	0x3dfebd2b	0.12438425
168	0xbcbcd936	-0.023052793
169	0xbde4f7bc	-0.11180064
170	0x3debfb62	0.11522557
171	0x3da6932b	0.08133539
172	0x3daf0053	0.08544984
173	0xbd6248e5	-0.0552453
174	0x3d46405e	0.04840123
175	0x3dbdfb7d	0.09276483
176	0x3d7833ae	0.06059616
177	0x3d1c9121	0.038224343
178	0x3d92ecb6	0.07174055
179	0xbddda1c5	-0.10821871
180	0x3d959559	0.073038764
181	0x3db20293	0.08691897
182	0xbd461952	-0.04836399
183	0x3d77732e	0.06041258
184	0xbd8f63f8	-0.070014894
185	0xbdf764c7	-0.12079769
186	0xbe03b9fb	-0.12863915
187	0x3d9a223a	0.075260594
188	0xbda61a98	-0.08110541
189	0xbccd8f08	-0.025092617
190	0x3d8988cf	0.06715547
191	0x3da6ac47	0.08138328
